best_model.pt (torch, 784034 bytes, 56 tensors)

input_proj.weight f4 [128, 11]
000000 2c bb 89 bc 93 15 2e 3e da cd 87 3e 7f 1f a6 bd
       -0.016812883 0.17000417 0.2652424 -0.08111476
000010 40 a3 6c 3d 4c b2 44 bc 5b a4 a1 3e f8 00 8c bd
       0.057772875 -0.0120054 0.31570706 -0.06836122
000020 e4 33 cd be c6 dd 17 bb 69 7e 49 ba 78 87 0b be
       -0.40078652 -0.0023172959 -0.0007686378 -0.13625896
000030 35 b1 d4 bd 49 36 b4 3e 65 40 03 bf 9d 38 90 3e
       -0.10385362 0.35197666 -0.51270133 0.28168193
000040 b9 37 34 bd a0 ba dc 3e 6e 90 7e 3e ec 6e 2e be
       -0.043998454 0.43111134 0.24859783 -0.17034501
000050 27 d9 c3 b8 ba 75 64 38 63 61 e9 be d3 96 46 3e
       -9.338772e-05 5.4469077e-05 -0.45582113 0.19393472
000060 27 e3 90 3e 82 76 39 3f e8 ac 70 be c8 25 3e be
       0.28298303 0.72446454 -0.23503458 -0.185691
000070 b4 ac 7f bd 14 5b 1f 3c c1 3e 65 3e 94 e0 68 bb
       -0.062420562 0.009726305 0.2238722 -0.003553425
000080 ae cd 53 3c 2c 6e 9c bd 58 62 99 be 6e 6e 19 bf
       0.012927456 -0.07638201 -0.29957843 -0.5993413
000090 61 5d 46 3e fd 43 9e be c6 5d c7 be 41 d5 66 bf
       0.19371559 -0.30911246 -0.3893873 -0.9016915
0000a0 6f 22 1a be 39 7e c5 3e 41 c1 bd bb 62 37 80 3c
       -0.15052198 0.38572863 -0.00579086 0.015651409
0000b0 fe 22 d5 3e d9 1f be be 34 d0 10 be a1 86 12 3f
       0.4162826 -0.37133673 -0.14141923 0.5723668
0000c0 9c 12 ba 3e 31 aa 0a 3e 0a 04 7b bf 09 d8 8e bd
       0.36342323 0.13541485 -0.9805304 -0.06974799
0000d0 9b fb ca 3e 63 16 8b bc 89 86 54 bb e3 98 2b bd
       0.39645085 -0.016978448 -0.0032428822 -0.04189385
0000e0 ca 46 7c 3e 36 f9 6a 3e e6 43 84 3d 11 a2 05 bd
       0.24636379 0.22946629 0.06458263 -0.03262526
0000f0 63 bf e9 bc 94 28 6b 3e ac e5 f7 bd e9 79 96 be
       -0.028533643 0.22964698 -0.12104353 -0.29389885
000100 a8 84 2e b5 05 19 82 3b 6d 5a 89 be 72 ac 19 bf
       -6.501309e-07 0.0039702677 -0.26826802 -0.60028756
000110 a5 1a 7d bf 0a 55 cf 3e 57 85 a4 3e aa 98 96 3e
       -0.9886878 0.40494567 0.3213298 0.29413348
000120 5b 73 19 bf 5e b4 8c be 32 7a 6e bd 3a 9e b1 bb
       -0.59941643 -0.2748136 -0.058222003 -0.0054204734
000130 d2 7d a0 bb 4b c9 f7 be 97 74 16 3f 82 8d 62 3f
       -0.0048978115 -0.48395762 0.5877165 0.88497174
000140 dd 26 08 3f 8b d0 8a bd b9 45 bc 3c bf f0 bb 3e
       0.531843 -0.06778058 0.022982465 0.36707112
000150 8d 41 84 be 0d 97 c2 be f6 ea 6b bb 11 33 50 3b
       -0.2583126 -0.38005868 -0.0035998202 0.003176872
000160 f3 4f 1a 3e 52 72 56 3e f9 34 5a 3f 42 92 f6 be
       0.1506956 0.20942047 0.8523708 -0.4815846
000170 54 8a de 3e 1f 70 b5 3d 71 3d 3e 3f 61 fb 78 3c
       0.4346491 0.08859276 0.743125 0.015196652
000180 3f 3d fe be db bf 3e 39 66 26 eb 3a b5 07 56 3b
       -0.49656102 0.00018191284 0.0017940521 0.0032658402
000190 87 63 17 3c 4e 5f 13 3d c8 8a df 3c a1 54 0b bd
       0.009240038 0.03597956 0.027287856 -0.034016255
0001a0 cf 58 07 3b 99 5d b4 bc 7c b3 f2 3b 72 a9 fa bc
       0.00206523 -0.022017287 0.00740665 -0.030598376
0001b0 aa 30 71 36 5e 6c 92 ba 7d cc 9f 3d 07 0d 07 bf
       3.5940125e-06 -0.0011171212 0.07802675 -0.52754253
0001c0 32 89 ac bf a3 8b 00 bf dc ed 67 3e 36 86 8d 3e
       -1.3479369 -0.5021307 0.2264933 0.27641457
0001d0 3e a6 b9 3e d7 5e cc bd 8f 2a 89 3e 64 cd c0 ba
       0.36259645 -0.09979027 0.26790282 -0.0014709649
0001e0 26 c4 85 bc c5 b6 25 be 13 1f ca 3e 5e d2 ed 3e
       -0.016328882 -0.16183002 0.39476833 0.4644956
0001f0 21 68 24 bc bb f1 d1 3c ab eb 0b be a2 9a b5 3e
       -0.010034592 0.025627961 -0.13664119 0.35469538
000200 6d 3e e9 bb d1 16 e6 be dd a4 c0 b9 30 2a af 3a
       -0.0071180374 -0.44939283 -0.00036743926 0.0013364013
000210 e7 63 6b bb 68 b5 a3 bd 54 a8 e8 bd 91 82 84 be
       -0.00359177 -0.07993585 -0.11360231 -0.25880864
000220 53 2a 17 3d 29 16 e3 3b 28 6b 88 3e e5 21 37 3e
       0.036905598 0.006930132 0.26644254 0.17884023
000230 aa 0f 03 3c a2 fd ae 34 a7 24 7c 39 38 5a 61 bc
       0.00799934 3.2594568e-07 0.00024046247 -0.01375442
000240 b8 a2 5d be 9c 89 94 bd c6 66 ed be 8b 64 9e 3d
       -0.21644104 -0.072528094 -0.46367472 0.07734021
000250 1b 37 02 3d 35 f9 b5 3e 6d 6e cb 3d 5c c5 78 be
       0.031790834 0.35541692 0.099331714 -0.24294037
000260 c4 14 18 b6 2a 09 12 3b df 45 da ba c0 64 16 bd
       -2.2661852e-06 0.0022283294 -0.0016652903 -0.036717176
000270 01 21 50 bc 4a 39 c8 ba 89 fb 8e 3b 42 e2 80 3b
       -0.012703181 -0.0015275863 0.0043634814 0.003933222
000280 f5 22 f3 3a a2 e4 4b ba 3b 74 06 3c 89 60 1a 35
       0.0018549847 -0.00077779044 0.008206422 5.750995e-07
000290 64 62 9e ba 1d d4 44 be 3e 6c e6 be 06 55 7b bf
       -0.0012083766 -0.1922154 -0.45004457 -0.9817661
0002a0 e9 39 02 bf e4 15 25 3a ab ba 19 3c 28 45 c3 bd
       -0.50869614 0.00062975124 0.009382884 -0.09534675
0002b0 f6 04 25 3e 0e 05 c6 bd 54 ef b5 bb 16 38 5a bc
       0.16115174 -0.09668933 -0.005552212 -0.013319036
0002c0 d8 78 0e bd 41 63 6a be e4 94 43 3e a9 18 59 3e
       -0.034783214 -0.22889425 0.19099766 0.21200813
0002d0 e3 6e cb bc 08 25 41 be 10 c4 45 be 52 ca f6 3d
       -0.024833148 -0.18861783 -0.19313073 0.12050308
0002e0 1c bd 04 3e c3 fb 6e b7 b3 b0 e2 3a 15 17 96 bd
       0.12962765 -1.4244523e-05 0.0017295092 -0.07328621
0002f0 0e e8 00 3e 45 86 54 bf 86 d2 c6 bd 66 27 ad 3d
       0.12588522 -0.8301738 -0.09708123 0.0845478
000300 f5 49 3e be 42 ba ab be f0 08 f6 bc 2d 77 eb 3e
       -0.185829 -0.3354054 -0.030033559 0.4598936
000310 23 fc 70 bb 1d 6e 49 bc 48 3a dd be 8f d1 d5 3e
       -0.003677138 -0.012294319 -0.43208528 0.41761443
000320 8a 06 42 3f 04 22 a9 3e d3 55 17 be 9e 05 e3 3d
       0.7579123 0.33033764 -0.14778833 0.11085056
000330 ea 70 77 3e a0 83 05 bd ab 31 2e be 80 30 8e bb
       0.24164167 -0.03259623 -0.17011134 -0.0043392777
000340 c0 b1 1b 3a 2a 1c cc 3d 5e 95 9e 3f a1 db 81 bf
       0.00059392676 0.09966309 1.2389333 -1.014515
000350 50 4a 7e bd 39 82 0c 3f b9 97 30 bd 75 db aa 3c
       -0.06208259 0.54886204 -0.043113444 0.020856598
000360 27 85 38 be 19 3c aa be 0b 39 9e bc 33 cf d9 bc
       -0.18019544 -0.33248976 -0.01931431 -0.026588058
000370 1a 76 e9 3d 41 ca e4 3e 6d da aa 3e ad 5d 8b 3d
       0.11399479 0.44685557 0.3336977 0.068049766
000380 55 0a 70 be 5f b4 28 be 13 93 86 3e 0c ad 62 bc
       -0.23441441 -0.16475056 0.26284084 -0.013835203
000390 e0 1a 11 bf 5d fe 9b 3c a7 75 36 3b c3 68 f1 be
       -0.56681633 0.019042188 0.0027841122 -0.4715024
0003a0 48 aa e4 3e f3 ce 53 3f 51 f3 65 3e a9 46 4d 3e
       0.44661164 0.82737654 0.22456099 0.20046486
0003b0 c8 6d 61 be b7 be 82 3e a2 82 7d be 8e d4 58 bc
       -0.22014534 0.2553613 -0.24756864 -0.013234271
0003c0 05 fd ad ba 9e 42 92 3a 73 94 c6 3d cf 35 16 bf
       -0.0013274258 0.001115877 0.09696283 -0.58675855
0003d0 e3 5c 59 3f 1a 7f c7 3e 21 03 7e be 59 9b df be
       0.8490736 0.38964158 -0.24805881 -0.43673208
0003e0 59 9e 56 be 9b 86 78 3e bd 76 20 be 9e d0 95 3c
       -0.20958842 0.24270098 -0.15670295 0.018287953
0003f0 33 dd 52 3c 96 25 2c 3e 45 a9 50 be 5d be 11 3f
       0.012870121 0.16811213 -0.20377071 0.56931096

input_proj.bias f4 [128]
000000 44 1f bb be 41 d1 07 bc 1b 04 bb be 6b bf 90 bd
       -0.3654729 -0.008289636 -0.3652657 -0.0706776
000010 92 18 17 bc c2 94 f4 bd 35 c7 b3 3d 3f e9 41 be
       -0.009222167 -0.11942436 0.0877823 -0.18936633
000020 76 fa 83 3d e7 82 22 be 8a 03 c2 3d d9 10 07 be
       0.06444256 -0.15870248 0.09473331 -0.1319002
000030 f7 63 6e 3e cc 85 88 3e 89 c2 04 3b df b4 c0 3d
       0.23280321 0.2666458 0.0020257554 0.094094984
000040 15 33 33 be 67 67 98 3e 01 a1 61 be 25 c8 46 bd
       -0.17499955 0.2976639 -0.22034074 -0.048530716
000050 a9 6b db 3d e0 99 69 bd 8c 32 49 bd dc 7b de be
       0.10713894 -0.057031512 -0.04912047 -0.43453872
000060 a6 d1 5f bc c9 89 b8 be d3 bd a7 be 62 50 84 be
       -0.013660824 -0.36042622 -0.32762012 -0.25842577
000070 84 75 b9 3d b6 d9 1d 3c e6 ab 1f be 73 b6 59 bc
       0.090556175 0.009634426 -0.15592918 -0.013288128
000080 c2 c9 10 3f 87 9a e2 bb d0 e1 95 3d 0f 7b c8 be
       0.5655786 -0.0069153938 0.07318461 -0.39156386
000090 fc 8c 13 3e 2c bb 06 be 65 90 4b 3d 29 26 82 be
       0.1440925 -0.13157338 0.049698252 -0.2541974
0000a0 b8 2d cc bd 2f 05 10 3e 5a 78 60 bf 41 3c c2 3e
       -0.09969658 0.14064477 -0.8768364 0.37936595
0000b0 41 c4 fb bd 46 3b da bd 37 3e c6 3d 1d e1 5b 3e
       -0.12293292 -0.10655837 0.09679835 0.21472593
0000c0 ee 72 4c bd ec 00 af 38 d5 a6 ea be d7 c0 f9 3c
       -0.049914293 8.344822e-05 -0.45830408 0.030487461
0000d0 53 60 ac be 01 d9 79 3e e0 81 98 bd 9c df f0 b8
       -0.3366724 0.24399187 -0.07446647 -0.00011485742
0000e0 ca b6 1a 3e 82 6e e9 bd 56 78 b7 be dd 71 ae bd
       0.15108791 -0.11398031 -0.35833997 -0.085178114
0000f0 73 18 b3 bd e8 f7 ae bb 4a 5b 6d 3c b3 9d fd 3d
       -0.08744898 -0.0053396113 0.014487097 0.12383594
000100 c3 9d 0a 3e 8f 2c 02 bd 0e ad 1c bd 36 df 05 bd
       0.13536744 -0.031780776 -0.038250975 -0.032683574
000110 3e 99 8a bd aa c1 ac bd f8 c6 d0 bd 1d d8 9c bd
       -0.0676751 -0.08435376 -0.101942 -0.07658408
000120 ee 46 ca bb 7d ad 4d 3d 4a af 04 3e 8c 21 8d 3e
       -0.0061730063 0.05021428 0.12957492 0.27564657
000130 21 eb cb bd 18 16 cd bd b3 d1 1e bf b3 98 86 be
       -0.09956957 -0.1001398 -0.62038726 -0.26288375
000140 22 0f 1b bd 58 27 f1 bd ac 66 bb be 89 8c 7b be
       -0.03785623 -0.11775082 -0.3660177 -0.24565329
000150 f5 80 4d 3d 0e 65 33 3e 70 1d 63 3d aa cc 77 be
       0.05017181 0.17519018 0.055447996 -0.24199167
000160 1d e2 96 bd 33 ad 60 3e af bf 2c bd b5 5c 09 bd
       -0.073673464 0.2194107 -0.04217499 -0.033535678
000170 29 ab 1e 3e 48 cc a5 bd 66 dc 7f bd 44 a0 81 be
       0.1549498 -0.08095604 -0.062466048 -0.25317585
000180 ac e8 15 be 88 53 25 be a6 f0 90 3e 55 ce 6e be
       -0.14639539 -0.16145146 0.283086 -0.23320897
000190 44 01 8d 3e 2e ed eb 3c c7 0b ab bd 44 8f 6a 3d
       0.27540028 0.02879962 -0.08351856 0.057265535
0001a0 18 d6 5b bb d0 2c 0d 3e 9e 7b 3c bd 59 06 03 bf
       -0.0033544358 0.13786626 -0.046016328 -0.5118156
0001b0 ac d8 79 3e 11 e9 00 bf 5a 52 99 be 87 a2 9e be
       0.2439906 -0.5035563 -0.29945642 -0.30983374
0001c0 29 57 cf be cf cd c0 be 63 49 00 be 96 2d 40 bd
       -0.40496185 -0.3765702 -0.12527995 -0.046918474
0001d0 6b 8c a3 bd 5f 39 76 bd 22 3f 6d 3c 27 25 0c 3b
       -0.07985767 -0.060113307 0.014480384 0.002138445
0001e0 0d 9c 26 be ff b0 be 3b fc c0 8a 3d 06 6c bf 3e
       -0.16270466 0.0058194394 0.0677509 0.37387103
0001f0 07 7b dd bc fa b7 a9 bd 68 f7 fc bd 11 5b 90 be
       -0.027036203 -0.08287044 -0.123518765 -0.28194478

convs.0.nn.0.weight f4 [128, 128]
000000 dd f6 46 80 33 03 81 24 28 a7 75 1d 68 9c d5 2a
       -6.517043e-39 5.595025e-17 3.2511898e-21 3.794493e-13
000010 6e 23 ba b8 79 44 32 80 49 7d d8 2b 96 b1 00 29
       -8.8757704e-05 -4.616338e-39 1.5382497e-12 2.857574e-14
000020 84 3f 36 a2 0f 46 7d 00 db ba 86 a7 43 32 5f 1a
       -2.4699224e-18 1.150457e-38 -3.739506e-15 4.615592e-23
000030 7b 03 a5 80 8c a7 82 06 d0 f4 69 80 2f 78 fd 26
       -1.5154105e-38 4.9146753e-35 -9.730549e-39 1.7587977e-15
000040 da 67 03 00 9f 73 7e 98 69 38 be 27 71 4a d5 af
       3.12761e-40 -3.2887104e-24 5.2796754e-15 -3.8797368e-10
000050 a3 b7 54 a5 b9 fe 51 2c 0c 4d ff ae 4c 5b 19 b5
       -1.8450287e-16 2.9842086e-12 -1.1609744e-10 -5.7129796e-07
000060 f3 18 a1 01 5c 45 86 20 bd ce 7a 00 ce fb bb af
       5.917786e-38 2.274638e-19 1.1278094e-38 -3.419402e-10
000070 1f 91 62 a1 b9 57 5d 00 3f ba ff af 53 d3 0e 00
       -7.6763845e-19 8.57217e-39 -4.6516566e-10 1.361506e-39
000080 e8 2d ee 2b 80 34 5b 81 87 7d 42 30 2c 29 4b 80
       1.6923659e-12 -4.0261614e-38 7.0755174e-10 -6.902432e-39
000090 23 6a 30 32 10 b2 2d 20 3f 8b 8a 81 b6 67 25 80
       1.0268681e-08 1.4712586e-19 -5.0893e-38 -3.435118e-39
0000a0 e9 76 b3 24 e7 4a 80 a3 f6 12 a0 a6 30 de cc 26
       7.783032e-17 -1.390951e-17 -1.110737e-15 1.4215568e-15
0000b0 f2 40 3c 80 53 95 d0 00 4c 18 18 27 cb 4c 14 80
       -5.533428e-39 1.915535e-38 2.1107409e-15 -1.864258e-39
0000c0 d2 f2 04 01 0e 46 37 01 20 c1 a6 b6 90 67 07 01
       2.4418786e-38 3.3662053e-38 -4.969668e-06 2.4869886e-38
0000d0 0e a2 3d 80 97 33 21 14 ce 05 80 9a ec 08 3b 00
       -5.6601e-39 8.138597e-27 -5.294894e-23 5.421495e-39
0000e0 c9 89 08 2d 75 4a c5 00 01 34 3c 2d ac f8 8e 2b
       7.761299e-12 1.8118303e-38 1.069811e-11 1.0158727e-12
0000f0 40 94 82 26 6e b6 6d 01 25 b9 74 00 3f f9 df b1
       9.060745e-16 4.3660912e-38 1.0719335e-38 -6.51849e-09
000100 e9 16 80 33 60 45 59 29 6f 2c 18 00 bb 15 81 00
       5.964632e-08 4.8243852e-14 2.219992e-39 1.1854574e-38
000110 98 76 4d a4 ca e9 b6 21 6a 5a 8d a8 51 41 82 b0
       -4.4552742e-17 1.2394683e-18 -1.5693355e-14 -9.477309e-10
000120 56 9a 36 80 18 82 bd 01 2d e8 ee b6 85 40 94 0d
       -5.014482e-39 6.961431e-38 -7.1199815e-06 9.136737e-31
000130 54 2e 5f 00 1b 3b 01 b1 5d 65 e0 ac ee 11 cc 2a
       8.740992e-39 -1.8805568e-09 -6.3777165e-12 3.625012e-13
000140 bc ba 58 00 a1 4a 62 24 9a 59 93 12 1e 8f a5 28
       8.148511e-39 4.906915e-17 9.299093e-28 1.8380747e-14
000150 d5 ab fc 20 c6 4e bc 2a e7 f3 84 80 a6 74 34 31
       4.280417e-19 3.3450169e-13 -1.2209781e-38 2.6259754e-09
000160 a8 41 a2 1f 84 93 b2 23 59 59 42 00 5a 94 ea 1d
       6.871829e-20 1.9361274e-17 6.093195e-39 6.2092676e-21
000170 cb cb 98 1f e2 b9 34 01 47 8e 34 99 5f fc 87 b3
       6.471165e-20 3.3194143e-38 -9.3345146e-24 -6.3323334e-08
000180 dc 69 d8 12 a2 1f 29 af 6e 0e 16 1e f9 b3 81 99
       1.3657613e-27 -1.5381699e-10 7.943918e-21 -1.3410978e-23
000190 69 13 3a 24 01 33 8e 2d ff fd 4e 1d 64 e8 88 11
       4.0348762e-17 1.6166181e-11 2.7395186e-21 2.1600238e-28
0001a0 37 96 64 00 df 3c c2 1b 64 b6 35 0c dc 88 96 0a
       9.237437e-39 3.2133945e-22 1.3998619e-31 1.4495955e-32
0001b0 4c 4b 87 80 bc 55 71 04 7a be 32 22 77 55 e1 2c
       -1.2424803e-38 2.8368781e-36 2.4224336e-18 6.404373e-12
0001c0 15 e6 af ae 42 8c 9b 80 49 64 98 b0 22 bb 8d 16
       -7.9989494e-11 -1.4284817e-38 -1.1087958e-09 2.2897876e-25
0001d0 7d 10 2f 13 3b 37 1f a5 d7 3e a7 1e f8 1d 16 81
       2.2096235e-27 -1.3809764e-16 1.7707803e-20 -2.757215e-38
0001e0 c8 2d 00 80 b9 38 89 00 72 89 e7 25 c8 19 04 2b
       -1.6423e-41 1.2601811e-38 4.016525e-16 4.69316e-13
0001f0 6e d0 bb b5 3f 8b 48 b3 d9 0e 83 24 6f 59 05 01
       -1.3993247e-06 -4.6692772e-08 5.683735e-17 2.4492407e-38
000200 48 ef 7b 01 09 db 15 00 53 1f 5d 80 58 d7 40 00
       4.6273095e-38 2.00712e-39 -8.551938e-39 5.954723e-39
000210 51 99 36 9d 44 8a a9 01 33 d8 1c 00 03 70 7c 80
       -2.4166762e-21 6.2279197e-38 2.648952e-39 -1.1427784e-38
000220 40 ea 01 81 fd e1 23 00 0c d0 c3 00 5f ec 43 80
       -2.3861624e-38 3.295312e-39 1.7982555e-38 -6.237772e-39
000230 30 46 1e 81 8e 3b 33 00 fc e4 4c 81 e6 64 d3 00
       -2.9070374e-38 4.704975e-39 -3.763317e-38 1.9413485e-38
000240 8d b6 23 81 e7 53 a7 00 1e 99 6a 80 13 87 12 80
       -3.0069346e-38 1.5366626e-38 -9.78949e-39 -1.701494e-39
000250 b5 c1 71 00 d4 32 75 80 04 cf 0b 01 00 27 87 00
       1.04469e-38 -1.0762987e-38 2.5678794e-38 1.2411783e-38
000260 24 f2 df 80 2f 64 15 80 3f e8 18 00 0b f0 2a 00
       -2.056618e-38 -1.964485e-39 2.287366e-39 3.943202e-39
000270 60 3e 7d 81 6c e5 e5 80 a0 ad 0d 01 fe 57 22 01
       -4.6513513e-38 -2.111263e-38 2.602218e-38 2.9817832e-38
000280 50 c5 51 80 28 3d 48 01 8f 35 80 00 7b d9 79 80
       -7.509458e-39 3.6778076e-38 1.1774157e-38 -1.1190112e-38
000290 35 74 01 80 75 73 70 80 1b 3b 37 01 a5 6f bc 00
       -1.33523e-40 -1.0326994e-38 3.3654198e-38 1.7305124e-38
0002a0 51 fb a5 80 f6 aa 8c 80 ce 8f 80 80 f1 5c 3e 00
       -1.5243012e-38 -1.2918299e-38 -1.1806531e-38 5.727142e-39
0002b0 9e 17 9a 80 66 d4 2d 01 9c 00 90 80 08 3b 07 80
       -1.4151139e-38 3.192747e-38 -1.322453e-38 -6.64025e-40
0002c0 50 6e 3d 01 ae 62 6f 00 61 a2 24 00 8f 86 c2 80
       3.4792963e-38 1.022914e-38 3.364328e-39 -1.7864357e-38
0002d0 09 53 fb 00 98 e4 ac 00 a9 7f 44 00 7c c3 59 01
       2.3080497e-38 1.587771e-38 6.29061e-39 3.9996858e-38
0002e0 d3 ab d9 80 2b 1e 2a 80 46 aa 8e 00 9d 9e c3 80
       -1.9989942e-38 -3.867913e-39 1.3101723e-38 -1.7964821e-38
0002f0 26 3a 50 80 56 2f a3 81 63 95 b5 81 d7 24 51 00
       -7.3677e-39 -5.994467e-38 -6.670326e-38 7.451891e-39
000300 4b 92 23 00 91 06 90 00 1f 81 cf 00 80 57 a6 80
       3.266722e-39 1.3226667e-38 1.9056268e-38 -1.5276081e-38
000310 8d c4 9b 80 a8 72 69 80 e2 38 60 01 21 ae 6b 00
       -1.4305011e-38 -9.683858e-39 4.1183114e-38 9.888864e-39
000320 cd 8f df 80 dd 0b 5d 81 2a 88 ec 88 df eb 33 00
       -2.0530902e-38 -4.05998e-38 -1.4235745e-33 4.768225e-39
000330 b8 f5 0b 00 3f 11 00 00 08 e3 24 00 8a 44 59 80
       1.098338e-39 6.187e-42 3.387521e-39 -8.197946e-39
000340 c6 f9 a3 00 0b e6 92 80 8a 8a 49 80 e0 e7 7c 80
       1.5058788e-38 -1.3490506e-38 -6.75369e-39 -1.1470783e-38
000350 5c d4 3e 00 28 c4 90 80 9c d4 47 01 54 bc 49 80
       5.769981e-39 -1.3294679e-38 3.6703067e-38 -6.77155e-39
000360 10 21 87 80 10 ac a5 00 fc 08 5c 80 f5 c8 70 80
       -1.2409653e-38 1.5214581e-38 -8.452089e-39 -1.0357665e-38
000370 10 64 95 80 8f 03 e6 00 4b 07 e9 00 98 f0 04 80
       -1.3719385e-38 2.112344e-38 2.1400287e-38 -4.53651e-40
000380 99 ac a4 80 f0 8c 09 00 fa 4f 0d 81 e9 ea 14 00
       -1.5122938e-38 8.77078e-40 -2.595499e-38 1.92098e-39
000390 5f 36 e8 80 1f bb 81 01 26 41 ad 80 17 60 03 80
       -2.132534e-38 4.765562e-38 -1.5910912e-38 -3.09977e-40
0003a0 f2 66 1b 81 6f 9b 23 80 ba 69 2e 80 96 d8 32 00
       -2.8542863e-38 -3.270001e-39 -4.26236e-39 4.669471e-39
0003b0 90 fb a3 00 2c ea 57 80 45 f9 70 80 94 8c 03 80
       1.505943e-38 -8.073693e-39 -1.0374997e-38 -3.25936e-40
0003c0 9d 0e a3 00 32 9e b2 00 e8 22 43 80 08 9a ac 80
       1.4974428e-38 1.6403468e-38 -6.1655e-39 -1.5850961e-38
0003d0 0f d8 70 00 e7 62 34 00 b9 68 02 80 72 c0 47 81
       1.0363083e-38 4.810925e-39 -2.21238e-40 -3.66886e-38
0003e0 19 fe 06 81 ea 2a 5b 00 21 05 c2 00 b9 a7 7b 00
       -2.479422e-38 8.372425e-39 1.7817926e-38 1.1355934e-38
0003f0 c7 b4 7d 9c b9 72 39 00 3c 70 59 80 cf 91 02 81
       -8.3944327e-22 5.275778e-39 -8.213621e-39 -2.3981842e-38

convs.0.nn.0.bias f4 [128]
000000 a7 c7 3f 80 b2 50 2e 00 f0 98 2f 3d 37 e4 05 81
       -5.857258e-39 4.253381e-39 0.042870462 -2.4591978e-38
000010 9f 1c 3b bc 97 4d 76 15 e6 27 0c 80 9a d0 d2 bc
       -0.011420398 4.9740512e-26 -1.116339e-39 -0.025734235
000020 dc 0c 5b 80 ef 25 f2 bb 41 0e 1a be 57 2a 4b ba
       -8.361643e-39 -0.007389776 -0.150445 -0.00077501446
000030 cd 89 8f bb 10 a1 58 80 38 85 5f 80 c1 83 2e 00
       -0.004380441 -8.139302e-39 -8.772162e-39 4.271697e-39
000040 b2 1c 24 98 fe 6a 08 00 1a 3d 69 be c4 a8 a0 00
       -2.121099e-24 7.73066e-40 -0.22777215 1.4754221e-38
000050 fd 3e 13 3e 00 be 42 01 e0 90 7b 80 83 d1 5c 1f
       0.14379497 3.576849e-38 -1.1347737e-38 4.6760116e-20
000060 94 27 21 ae 69 36 d1 00 ae 3c 03 00 f1 5d c0 38
       -3.6642314e-11 1.9213137e-38 2.97274e-40 9.1727714e-05
000070 68 b1 f4 bc 74 d9 ab 37 1a 08 07 00 30 8e 32 81
       -0.02986975 2.0486048e-05 6.45755e-40 -3.279545e-38
000080 e3 bd ca bb 8a 48 fc 80 26 ab 9f 3d 1e c3 98 00
       -0.006187187 -2.3168567e-38 0.07796316 1.402899e-38
000090 0c 1c b3 81 09 36 f8 b9 7d 25 84 3d 8d ea 03 80
       -6.579446e-38 -0.00047342505 0.06452463 -3.59647e-40
0000a0 11 a4 b6 bd 7d 1f 77 00 2c f1 98 bb ee 3b 0f 81
       -0.08918012 1.093972e-38 -0.004667422 -2.630795e-38
0000b0 07 00 b0 ba aa b4 17 24 12 0b 45 ba e7 df c5 80
       -0.0013427743 3.2895934e-17 -0.0007516603 -1.8171914e-38
0000c0 ec b4 18 8f c9 2b 9f bb 12 f7 4e 81 e8 9e 29 81
       -7.529023e-30 -0.0048575145 -3.801349e-38 -3.1154407e-38
0000d0 7b 5d db 3b 94 1c 92 37 81 3f 6b b7 51 b4 ed 00
       0.0066944933 1.7417864e-05 -1.4021877e-05 2.1829698e-38
0000e0 74 58 56 b8 c2 0f f9 bc f9 fc 8a 3d fd 45 fb bb
       -5.1103954e-05 -0.030403022 0.06786532 -0.0076682554
0000f0 d4 a8 c7 80 64 d7 a9 aa 02 89 70 3c 45 0c a6 80
       -1.8335828e-38 -3.0169888e-13 0.014681103 -1.5249094e-38
000100 fa c9 91 36 f0 7c 5e 80 28 b7 3d 00 b2 27 7d 80
       4.34485e-06 -8.677356e-39 5.66767e-39 -1.1493677e-38
000110 4d dd e6 bc 93 19 bb 97 cb 2b 83 00 ae a3 c3 38
       -0.028181696 -1.2091048e-24 1.204616e-38 9.328812e-05
000120 92 c3 87 ad d3 be 85 01 a5 a7 78 00 4e a3 eb ba
       -1.5434574e-11 4.9130303e-38 1.1080399e-38 -0.0017977746
000130 5a 6b 6b 00 ac 7f 71 9e 8e 2b ba 80 95 25 13 b6
       9.864909e-39 -1.2784836e-20 -1.7097027e-38 -2.1926583e-06
000140 93 7d 63 bb b0 3b 18 bc 86 ee 72 01 0a 8e ce b2
       -0.00347123 -0.009291574 4.4619512e-38 -2.4046148e-08
000150 c2 6a b9 81 e5 09 94 30 de cf aa 81 9c 9e 27 80
       -6.8111457e-38 1.077123e-09 -6.274641e-38 -3.638483e-39
000160 95 dd 07 bb d4 f5 2f 08 cb ae 74 bb 73 31 c8 a5
       -0.0020731438 5.2951116e-34 -0.003733563 -3.4727978e-16
000170 7c ef b9 3b 73 39 e6 3e db 43 9f a4 00 41 0a 8f
       0.0056743007 0.44965705 -6.907021e-17 -6.816444e-30
000180 23 15 4b 84 ec 8b 3f 81 50 9b e8 bb 85 ac dc 19
       -2.387224e-36 -3.5181549e-38 -0.007098593 2.2817147e-23
000190 1a 04 20 bc 16 32 cb 80 e4 91 a8 bb f5 89 90 80
       -0.009766603 -1.8660573e-38 -0.0051443446 -1.3273801e-38
0001a0 62 22 20 80 8e 6f 3b bc c3 59 b4 81 dc 90 a5 3e
       -2.95107e-39 -0.011440171 -6.625036e-38 0.3233708
0001b0 6b 82 b6 a7 73 f9 73 00 8a 92 57 b2 6e 29 87 81
       -5.0656547e-15 1.0650568e-38 -1.2547966e-08 -4.9650617e-38
0001c0 2e 3c 1f 80 b7 4e 08 bf 62 a1 08 81 10 9f f4 3b
       -2.868489e-39 -0.5324511 -2.5095041e-38 0.007465251
0001d0 f4 2d 5d be 5b aa c0 00 c7 56 38 bc e2 b0 66 00
       -0.21599561 1.7693527e-38 -0.011251158 9.430674e-39
0001e0 30 36 1c 80 c1 cf 93 00 06 5e ba 31 f1 17 78 81
       -2.590833e-39 1.3574346e-38 5.4240017e-09 -4.5567583e-38
0001f0 b0 1b 1c 3d 42 08 87 ba f7 e8 4b 3d 6d 63 a1 bd
       0.038112342 -0.0010302144 0.04978272 -0.07880292

convs.0.nn.2.weight f4 [128, 128]
000000 a5 e3 62 2f 5a 52 81 01 a0 71 12 bb 8b 99 95 80
       2.0635456e-10 4.7505285e-38 -0.0022345558 -1.373857e-38
000010 69 aa 88 bd 70 64 b3 3a 08 31 af 83 fc 13 8d 3e
       -0.06673128 0.0013686549 -1.0296833e-36 0.2755431
000020 4d 4d 37 b3 84 cd 40 3e 91 fb 71 3c fb 80 32 3b
       -4.2678312e-08 0.18828398 0.014769451 0.0027237523
000030 9e df 28 3d f7 7b 67 00 42 98 ea 00 62 15 0a 80
       0.041228883 9.503526e-39 2.1544126e-38 -9.26026e-40
000040 3c fd 3a 99 2a d9 5b 00 08 c9 ac 3e 78 51 9e 00
       -9.667115e-24 8.434934e-39 0.33747125 1.4539234e-38
000050 50 c0 78 be b5 34 1d 00 e1 24 79 2b 21 45 3b bc
       -0.24292111 2.682137e-39 8.851375e-13 -0.011430056
000060 81 0e 6d 3b 11 54 69 80 0d 37 2d 80 d7 fb 82 3e
       0.0036171975 -9.672884e-39 -4.152346e-39 0.25582764
000070 cf c6 63 3e f8 c1 5e 3b 68 a7 22 80 70 67 d4 80
       0.22243808 0.0033990126 -3.182461e-39 -1.9506232e-38
000080 c4 a5 06 3b ac 34 fd 80 c7 a1 4b 3f 03 1e ce 00
       0.0020545581 -2.3253276e-38 0.7954373 1.8928878e-38
000090 32 67 15 00 96 c3 5e 37 e9 66 e8 bc 9e 47 a8 00
       1.965565e-39 1.32777695e-05 -0.028369384 1.5454055e-38
0000a0 4c 4a 95 bd 1b 60 07 80 fe 1d d0 3b 6a 28 a6 80
       -0.07289562 -6.77325e-40 0.0063512316 -1.525919e-38
0000b0 db f2 b3 3c 9e 64 a2 a3 09 ce 31 b9 d1 79 52 aa
       0.021966388 -1.7606688e-17 -0.0001695679 -1.869401e-13
0000c0 c2 9b 8f b7 87 0f 9d 3c 20 ad a9 00 b7 34 3d 81
       -1.7119459e-05 0.019172443 1.5582304e-38 -3.4751639e-38
0000d0 1f 7b 0d bd 43 52 27 bb 42 f4 99 3e 34 0c 2e 00
       -0.034541246 -0.002553121 0.30069166 4.22881e-39
0000e0 a2 7a 39 bc 66 af d9 3a c7 1b 90 3c 76 5e 92 3b
       -0.011320742 0.0016608059 0.01759137 0.004466827
0000f0 6c 99 26 00 b2 b8 aa 26 ce cb 37 3d de 93 0b 01
       3.544786e-39 1.1846181e-15 0.044872098 2.5636357e-38
000100 67 2f a4 3a 43 c2 11 af 04 7a d8 00 0e a1 72 01
       0.0012526334 -1.3256689e-10 1.9880238e-38 4.456393e-38
000110 76 c2 d8 be 97 73 35 34 a4 1b d2 92 8a 18 1a bd
       -0.42335862 1.689899e-07 -1.3259677e-27 -0.03762106
000120 0b 3e 29 3a 22 fa 58 81 94 05 ed 00 c2 f7 32 bd
       0.00064560835 -3.9852396e-38 2.1767014e-38 -0.04369331
000130 2f ee fd 00 76 f2 bc 2d 09 4d 8e 20 e4 4b 02 3e
       2.3319825e-38 2.14808e-11 2.4106713e-19 0.12724262
000140 bc f6 7a 3c d4 62 0a ba f4 b0 09 01 19 9d 1d 2e
       0.015317615 -0.0005279009 2.5289884e-38 3.5837198e-11
000150 73 30 60 01 8b e1 84 38 19 71 82 00 34 1b 3a 00
       4.1177063e-38 6.336261e-05 1.1979186e-38 5.336217e-39
000160 e8 8b 00 bb c2 58 af ad 98 d8 2f bd df 6a e2 3a
       -0.001961464 -1.9934613e-11 -0.04293117 0.0017274282
000170 50 c9 71 3b f3 c4 c9 3e 98 8c 44 99 bd 4b 20 33
       0.0036893673 0.39408073 -1.0161355e-23 3.7321787e-08
000180 8d fb 53 2b c9 46 11 00 a8 d3 32 3d 25 cb 02 b7
       7.5311355e-13 1.586596e-39 0.043658882 -7.795902e-06
000190 ea 23 11 3c 16 86 2d a5 73 2a 26 3d e4 a5 ae 80
       0.00885866 -1.5050788e-16 0.040567826 -1.6038887e-38
0001a0 ab 23 64 80 7a 97 f3 bc 27 03 a1 9c c9 13 47 bd
       -9.196345e-39 -0.029735316 -1.0654901e-21 -0.048602853
0001b0 d9 49 8c b9 d7 14 cf 00 0f 0a 77 3b 6c 0e ef 80
       -0.00026757902 1.9017424e-38 0.0037695204 -2.1953857e-38
0001c0 e8 32 0c 80 0d c1 71 be 45 92 37 80 7c 54 d4 bd
       -1.120288e-39 -0.236088 -5.103424e-39 -0.103676766
0001d0 47 6a ae 3e d1 86 17 b3 03 c1 8a 3c 37 45 32 00
       0.34065458 -3.5280042e-08 0.016937738 4.616604e-39
0001e0 4a db 49 00 9a 7b 78 01 77 a7 f8 b7 d5 19 2f 80
       6.782657e-39 4.5639086e-38 -2.9641886e-05 -4.325535e-39
0001f0 2a a9 2b 3d a3 c6 4c be 05 d9 07 bd 3f 69 5b be
       0.041909374 -0.19997649 -0.03316595 -0.21426867
000200 34 20 b1 96 a5 0e dc 00 e7 c2 c8 3d 63 bb 80 0b
       -2.8616215e-25 2.0209063e-38 0.098028 4.9585755e-32
000210 38 31 a7 bc 83 01 32 b7 69 6b 31 85 8b db 1c bf
       -0.020409212 -1.0609979e-05 -8.342228e-36 -0.61272496
000220 84 4e 39 aa d2 b2 24 bd c5 83 c7 bd 26 24 8a 3a
       -1.6458541e-13 -0.0402096 -0.0974193 0.0010539338
000230 ee db 18 bf 58 6e 90 20 b5 8f 01 01 e5 26 15 00
       -0.59710586 2.4467568e-19 2.3796663e-38 1.942498e-39
000240 00 27 78 19 85 92 0c 80 02 6b 8f 3c 99 9f 2f 01
       1.28291755e-23 -1.154587e-39 0.01750708 3.225693e-38
000250 c5 76 f1 3d b6 5f 47 80 55 ab 17 90 08 fe 0e 1e
       0.117902316 -6.554655e-39 -2.991149e-29 7.56995e-21
000260 02 f2 3d b7 ec 37 22 01 97 62 19 00 6a 83 ba be
       -1.1321625e-05 2.9794823e-38 2.331255e-39 -0.36428386
000270 67 c4 44 be b7 1b ca bb 00 6e 92 00 c4 d5 9c 80
       -0.19215547 -0.0061678546 1.3447443e-38 -1.4403022e-38
000280 2c f0 20 3c ae ce 8d 80 16 fd a3 bd cb 57 91 00
       0.009822886 -1.3022948e-38 -0.08007257 1.3347641e-38
000290 4d be 84 01 49 09 31 39 de 33 b2 be 80 1e 9b 80
       4.876221e-38 0.00016883494 -0.34805197 -1.4245443e-38
0002a0 7a b2 7e be b7 cc f0 00 2d 7b b6 bb 10 f9 c9 00
       -0.24872771 2.2113957e-38 -0.005568883 1.8548282e-38
0002b0 75 f5 8b bc 50 3f 91 a2 0a 34 8d bb ea 94 9f ab
       -0.017084816 -3.9369363e-18 -0.004309182 -1.1338961e-12
0002c0 30 f1 94 34 c3 44 51 ba a2 b8 2a 80 9e 74 be 00
       2.7742635e-07 -0.00079829636 -3.923325e-39 1.7490579e-38
0002d0 41 18 a0 bb 5d 85 9a 3b 97 80 5e be 9d b5 9d 81
       -0.004885704 0.004715605 -0.2172874 -5.7933294e-38
0002e0 58 f7 77 3b 25 bf 4c 3d ae 29 36 3d d5 ae d9 bc
       0.0037836637 0.049986977 0.044473343 -0.026572624
0002f0 0a c0 9f 81 b5 98 5b aa d4 4e 09 bd 01 17 69 81
       -5.868294e-38 -1.9504088e-13 -0.033522442 -4.2811846e-38
000300 b9 5b 21 b8 f9 48 d7 a0 f8 8a a2 00 45 dc 77 01
       -3.8470815e-05 -3.6470706e-19 1.4927203e-38 4.552477e-38
000310 85 92 e1 bd 89 ca ce 31 9d 05 d1 80 8d d4 59 3c
       -0.110142745 6.0184147e-09 -1.9195632e-38 0.013295305
000320 56 4a 1c bb 5c 4f 84 01 6d 59 30 81 8c 49 44 3d
       -0.0023848019 4.8603017e-38 -3.2390254e-38 0.047921702
000330 53 5b 80 80 89 11 d2 ac 44 0c 23 83 68 b3 1f 3d
       -1.1787704e-38 -5.9705058e-12 -4.7915475e-37 0.038989455
000340 2c bc a2 3b 83 e5 20 bc e2 a6 73 80 0f 3e 71 b6
       0.0049662795 -0.009820345 -1.0620948e-38 -3.5947921e-06
000350 e6 c7 4d 01 b7 a2 49 38 20 c0 2c 81 10 50 a8 00
       3.7795974e-38 4.8073674e-05 -3.1729254e-38 1.5457084e-38
000360 83 84 f5 ba c1 d5 29 2c 83 be 71 3c 15 bc bc b8
       -0.0018731508 2.4135002e-12 0.014754894 -8.9995716e-05
000370 ab 72 e3 3b 63 51 20 be 68 39 31 ab 1d 71 d4 28
       0.0069411597 -0.15656047 -6.29627e-13 2.3585783e-14
000380 f3 a5 af ab c2 8e ba 80 77 e4 e8 bc ec 4d 2e b7
       -1.2480558e-12 -1.7132614e-38 -0.028429253 -1.0389351e-05
000390 d5 61 02 3d 72 2a 8b 22 2c fe 87 bc 0a e9 d1 00
       0.03183158 3.7720966e-18 -0.01660069 1.9277217e-38
0003a0 a0 35 80 00 4b 38 98 3c 68 1c 3d 2a c0 6b 16 bd
       1.177418e-38 0.01858153 1.6796428e-13 -0.036723852
0003b0 90 da 08 ba 67 71 34 1f a2 9c c1 b8 a3 db 2e 0b
       -0.00052205566 3.8210287e-20 -9.232132e-05 3.3676417e-32
0003c0 e8 67 12 81 67 2d b7 3e 16 ac 3c 01 fd 5d 2b 3d
       -2.6890514e-38 0.35776827 3.4653612e-38 0.04183768
0003d0 e7 0b b7 be 27 b6 1b 33 a9 d8 90 bb 3b a9 90 01
       -0.35751268 3.6254416e-08 -0.004420359 5.314008e-38
0003e0 36 d8 4a 01 ae 89 79 81 66 1e 3c bb 88 e7 40 01
       3.7256664e-38 -4.5832857e-38 -0.0028704642 3.5430946e-38
0003f0 e1 7f 3e 3b 1f 57 40 3b 25 ec ad 3d 8d c1 8a bd
       0.002906792 0.0029348803 0.084923066 -0.06775198

convs.0.nn.2.bias f4 [128]
000000 3a 86 f8 b6 1e ba 59 b7 00 7f 39 37 24 6c fd b6
       -7.406602e-06 -1.2977542e-05 1.1056429e-05 -7.552577e-06
000010 a4 4e db 37 a9 16 25 36 06 09 06 37 91 46 1c 37
       2.6143454e-05 2.4600106e-06 7.989123e-06 9.314755e-06
000020 f2 7d b5 37 f5 94 39 b7 8d 6a 2b 37 c8 b6 02 37
       2.163553e-05 -1.1061541e-05 1.02172025e-05 7.791161e-06
000030 bf 3d 46 b6 31 36 25 36 42 f8 ba 36 e3 15 40 b7
       -2.954024e-06 2.461846e-06 5.572133e-06 -1.1449188e-05
000040 e0 5a 11 b8 f0 30 65 b6 60 63 dd b6 6f 6e 29 b7
       -3.4655328e-05 -3.4152145e-06 -6.597882e-06 -1.0098897e-05
000050 40 05 23 b6 71 e1 37 36 cc a5 14 36 e8 74 cf 37
       -2.4291949e-06 2.740035e-06 2.2150225e-06 2.4730762e-05
000060 20 7e 96 35 0d 23 d1 b6 3b 9e 15 b7 0a c8 d4 36
       1.1212578e-06 -6.232766e-06 -8.917933e-06 6.34138e-06
000070 df 67 dd 36 38 90 b7 b7 cc 69 bb 37 a6 06 2e b6
       6.5984054e-06 -2.1882457e-05 2.2341403e-05 -2.593189e-06
000080 2c 24 20 b6 74 42 50 b7 5f 3c 99 b5 ff 13 2f b6
       -2.3862913e-06 -1.2413238e-05 -1.1416959e-06 -2.6088671e-06
000090 df b8 40 b7 1c 14 db b6 ce 46 32 35 10 bb 14 b6
       -1.1487135e-05 -6.5290496e-06 6.64132e-07 -2.2162603e-06
0000a0 a2 7c 62 b7 71 1d 01 b8 e0 24 51 b5 10 4d 90 37
       -1.3499668e-05 -3.0783416e-05 -7.791223e-07 1.7202023e-05
0000b0 54 bb 99 b6 e6 e1 4e 36 24 4b af 37 eb 26 9a 38
       -4.581563e-06 3.0827882e-06 2.0896616e-05 7.350541e-05
0000c0 fe 03 2b 36 65 c3 5c 38 30 08 d9 b4 4b b3 9e b6
       2.548331e-06 5.2634063e-05 -4.0425357e-07 -4.7296394e-06
0000d0 84 e2 71 b6 f9 81 82 38 ec 8f fc 36 80 d8 b6 b7
       -3.6043648e-06 6.223092e-05 7.52694e-06 -2.1796906e-05
0000e0 2c 14 23 b7 00 3c e8 32 fe 16 9b b7 26 79 23 38
       -9.720254e-06 2.703564e-08 -1.8488146e-05 3.8975057e-05
0000f0 e0 22 ca 35 50 0d c7 35 10 0c 02 38 d2 5b 94 36
       1.5060323e-06 1.483053e-06 3.100565e-05 4.421433e-06
000100 b8 96 1d 36 7f f5 8c b7 f7 2d d7 b7 d0 c5 3c b6
       2.3482553e-06 -1.6803619e-05 -2.5651401e-05 -2.8129325e-06
000110 dc a8 eb 36 fe 08 1f b7 e0 36 ab 36 60 c4 17 38
       7.0232036e-06 -9.479232e-06 5.1025854e-06 3.6184094e-05
000120 c3 b0 66 b7 40 a1 ce 34 90 d4 11 b6 0c 20 8c b6
       -1.3750224e-05 3.8487815e-07 -2.1730411e-06 -4.176056e-06
000130 2d 2a 0f 37 b0 2d 11 34 3e e5 95 36 33 23 d1 37
       8.533284e-06 1.3520798e-07 4.4672333e-06 2.4931132e-05
000140 08 e2 bb 35 06 67 47 36 16 00 8d 36 da 99 91 b6
       1.399837e-06 2.9713278e-06 4.2021375e-06 -4.3392474e-06
000150 d6 50 ce 37 a4 f5 38 b7 d5 a4 46 b7 d2 42 0a 37
       2.4594756e-05 -1.1024447e-05 -1.1840098e-05 8.240999e-06
000160 f9 6e aa b6 dd 08 97 37 82 f7 52 b6 08 14 f0 b6
       -5.0793137e-06 1.800473e-05 -3.1436507e-06 -7.1548893e-06
000170 4c 1b 54 b6 15 dd bb 36 cf 06 18 b6 3c 80 41 37
       -3.160635e-06 5.5987716e-06 -2.2653728e-06 1.1533553e-05
000180 d8 7f 04 b7 db 0e 93 b7 54 3d 09 36 95 3c 20 b7
       -7.897579e-06 -1.7530683e-05 2.0450289e-06 -9.5508485e-06
000190 08 d9 8c b7 4f d4 9c 36 dc 5b 9a b7 40 83 42 36
       -1.6790364e-05 4.6738783e-06 -1.8401006e-05 2.898465e-06
0001a0 e1 9c 37 b7 a4 b6 94 b6 76 13 6e 36 ea 10 b1 36
       -1.0944176e-05 -4.432006e-06 3.5476091e-06 5.27698e-06
0001b0 39 dc 0e 36 95 68 36 37 27 1b 70 b6 50 d7 fb b6
       2.1287835e-06 1.0872395e-05 -3.5778592e-06 -7.5054486e-06
0001c0 3b 56 49 b7 ae 8a f3 37 a9 43 8c b7 1a d5 54 36
       -1.2000611e-05 2.9032435e-05 -1.6720807e-05 3.1714503e-06
0001d0 f2 a4 5c b7 1f f9 22 b7 a6 42 09 b7 01 6b bb 37
       -1.3151426e-05 -9.7139555e-06 -8.181354e-06 2.2341965e-05
0001e0 74 19 11 35 89 6d 00 b7 3e c0 1d b7 89 34 b0 b6
       5.405375e-07 -7.654898e-06 -9.402689e-06 -5.2513246e-06
0001f0 59 f6 0f b8 76 1c e0 b6 0c 9e 4d b7 f3 e5 0a 38
       -3.4323286e-05 -6.6790335e-06 -1.225575e-05 3.311592e-05

convs.0.lin.weight f4 [128, 6]
000000 48 de cf bd 1d 9d a5 3a ad c1 aa 3a 3c f9 6d 00
       -0.10149819 0.0012635324 0.0013027691 1.0099478e-38
000010 b4 ca 2c bb 26 3c 2a 81 02 bf 7d 00 07 10 8b 81
       -0.0026365938 -3.1267223e-38 1.1547958e-38 -5.1083534e-38
000020 b7 ad 0c 80 7a a1 8a 01 b0 9b e6 80 ad b8 20 80
       -1.164343e-39 5.09249e-38 -2.1178014e-38 -3.004985e-39
000030 0c b0 44 bf e1 6f 6d 3f c3 d9 a8 be 5a 2a cc be
       -0.76831126 0.9274884 -0.3297864 -0.39876062
000040 fe 42 3b 3f 7b f7 22 be 65 dd bc 3e 9a 12 4e bf
       0.73149097 -0.15914719 0.3688766 -0.80497134
000050 62 c9 e7 bd d1 3e 93 3e 07 4e b6 3e 6d 19 17 3f
       -0.113177076 0.28758863 0.35606405 0.5902317
000060 ad 55 28 3f ab 59 56 bf 2e 9b 9c be 9a 6c 91 bc
       0.6575573 -0.8373057 -0.30587143 -0.01775198
000070 7c 78 67 be 50 ce d3 be 32 b9 a7 bb 7c 84 1f 3c
       -0.22604555 -0.4136834 -0.0051185125 0.009736177
000080 15 21 89 bc 34 f7 80 99 7f f5 c2 bc 75 df a3 21
       -0.016739408 -1.3334734e-23 -0.023798702 1.1104458e-18
000090 a9 24 82 3e cf f0 c1 be ba 0c ca bb c8 6f e9 3e
       0.25418594 -0.37879035 -0.006166068 0.45593095
0000a0 a5 6c 87 3e da 2f 13 bd 3d 3b 39 be 75 38 f3 bd
       0.26450077 -0.035934307 -0.18089004 -0.11876003
0000b0 7b c5 09 3f 40 5a 1a 01 f0 c2 27 3e 77 07 60 bc
       0.53816956 2.8350084e-38 0.16382957 -0.013673655
0000c0 6c 40 8b be 3f c5 62 bc 44 74 31 3f 15 f6 27 bd
       -0.27197587 -0.013840972 0.6931803 -0.041006166
0000d0 e4 3e 7b 3d 7c b1 0a 3f 91 a5 5e bd 05 00 5a 3a
       0.061339274 0.5417707 -0.054357115 0.0008316043
0000e0 d2 3b dd b8 ae 5d f8 bc 0f 37 57 bd 25 3c 60 3b
       -0.000105492436 -0.030318107 -0.052542742 0.0034215536
0000f0 bb ad d6 3e 27 0a bb 3d 2f b9 0d 3f 61 fe 81 be
       0.4192942 0.09132796 0.5536069 -0.25389388
000100 7e a7 79 3f 20 d8 ec be 0a 1a a3 bc 07 21 3b bd
       0.975212 -0.4625864 -0.019909877 -0.045685794
000110 a2 bb 49 00 2c 70 b5 00 d9 c6 17 bd 90 25 51 00
       6.771301e-39 1.6662464e-38 -0.03705487 7.45215e-39
000120 62 4f 88 bd f4 bc 55 3d 40 23 8a 39 91 4e da bb
       -0.06655766 0.052182153 0.00026347674 -0.006662198
000130 15 56 d1 3c ee f0 62 bd fe 08 b2 ba ee 38 6c 81
       0.025553742 -0.05540555 -0.0013583002 -4.33872e-38
000140 64 26 37 80 71 6d 86 80 c3 38 5b ba 71 6d 86 80
       -5.064724e-39 -1.2345217e-38 -0.0008362645 -1.2345217e-38
000150 e6 44 0f bd a7 cd 78 bc 13 ab 9f 39 c9 01 13 bd
       -0.034977816 -0.01518575 0.00030454303 -0.035890374
000160 2b cd 6d bd c7 28 09 bd 95 8f b8 00 88 62 ce 80
       -0.05805699 -0.033486154 1.6949239e-38 -1.8953459e-38
000170 7a a5 1c 00 44 c2 4a 81 8c 3c 5c 00 76 b2 b1 01
       2.630756e-39 -3.724092e-38 8.470586e-39 6.527561e-38
000180 5f 5a 0d bd 95 7b d9 3c a8 11 bc 3c 45 62 0c 3c
       -0.034510013 0.026548186 0.022957638 0.008568351
000190 de 80 72 bc 3a 2f 82 bd f5 b3 cf 3e ed e8 53 be
       -0.014801232 -0.06356664 0.40566984 -0.20694323
0001a0 0f 14 7a bd 13 7d 4f be 0c 87 dd 3e 3a ac b2 3e
       -0.061054286 -0.20262556 0.43267095 0.34897023
0001b0 f8 06 d1 00 5c 88 f0 00 1e 25 ff 00 a2 6a e5 00
       1.9196119e-38 2.2089436e-38 2.3431367e-38 2.1068581e-38
0001c0 25 eb 55 01 64 17 8b 81 ef f7 49 3f 51 aa 2e bf
       3.929063e-38 -5.10941e-38 0.7889394 -0.6822863
0001d0 48 0b 6e 3e 86 6d bb be f0 7a b9 3e ce 83 3c 3e
       0.23246491 -0.36606997 0.36226606 0.18409654
0001e0 1c 09 f8 be c4 bb 77 3f 2e 73 d3 bd 0f 3b 8f bd
       -0.4844445 0.9677088 -0.10324703 -0.069936864
0001f0 d9 8a 3b be 3f 5c ca 3e df 40 be bb f9 51 46 81
       -0.18314685 0.39523503 -0.005806073 -3.642567e-38
000200 11 bc 1c 81 ae 6a 16 81 21 d3 c9 80 28 7d 28 00
       -2.8787606e-38 -2.7627188e-38 -1.8534674e-38 3.718317e-39
000210 83 b3 fe be 18 64 57 3f eb 16 1f be 55 c6 24 3d
       -0.49746332 0.84137106 -0.15536086 0.040228207
000220 18 da 9d be 36 fb b3 3e c0 51 e7 3e d4 92 30 bf
       -0.30830455 0.35152596 0.45179558 -0.6897404
000230 89 a4 0d 3e 75 3f 07 be 03 31 2c 3e 4a 49 3c 3c
       0.13832296 -0.132078 0.16815571 0.011492083
000240 ad 03 26 bd 2a 2b 0d 3d 0f 2a cb 3c f4 11 4b bd
       -0.04053085 0.034464993 0.024800329 -0.04957767
000250 5e ad 26 bc 82 4f 05 bd ac 45 87 bd c2 cb f2 99
       -0.01017317 -0.032546528 -0.06605086 -2.510451e-23
000260 78 8d 83 3e 74 2b 47 00 77 57 53 3c 72 81 22 00
       0.2569387 6.535908e-39 0.012899271 3.168843e-39
000270 2e 71 b6 3d e1 c8 bf bd 44 9b f1 bc d4 7c a7 bd
       0.08908306 -0.093644865 -0.029492982 -0.08178106
000280 e4 69 ce bc 24 e3 83 be 92 81 a9 3c 24 97 dd 3d
       -0.025196977 -0.25759232 0.020691667 0.108198434
000290 8d 3f f1 3d 19 5f 85 be 4a 89 d7 be 38 cc 6e bd
       0.117796995 -0.26049116 -0.4209693 -0.058300227
0002a0 9c fa 8d 3d 77 4c 4c 3c 8c 52 08 81 6d 7d 81 3d
       0.069325656 0.0124694025 -2.503848e-38 0.06322751
0002b0 cf bb 0b 3e f4 78 81 3d 56 f8 d8 bb 70 41 67 bd
       0.13645862 0.06321898 -0.006621401 -0.05645889
0002c0 16 dc 5d 3d 0d 67 a3 bc c5 75 fc 39 7e 4e db bc
       0.05416497 -0.0199466 0.0004815293 -0.026770826
0002d0 5b e3 0f bf 1b 7c f4 3e 0b a8 ca be ef 04 63 be
       -0.5620629 0.47750935 -0.39581332 -0.22169851
0002e0 4a 34 03 bc 40 41 84 3e 9e 2f 18 3e f0 ff 25 bc
       -0.008008072 0.25831032 0.14861915 -0.010131821
0002f0 6e d3 c2 bc a0 04 42 bd 50 19 27 3e 97 40 da bd
       -0.023782458 -0.047367692 0.1631825 -0.10656851
000300 2c 8d 13 3f d7 ba e9 be a3 af f1 3d ff 36 a0 3e
       0.57637286 -0.4565036 0.11801078 0.3129196
000310 7e 9b 86 3e 84 7d 5e 3c eb d4 6c bd 62 5e be bc
       0.26290506 0.01357973 -0.057820242 -0.023238365
000320 e4 1a 95 3b 08 52 e7 3b 02 ea 60 bd d2 4e 3b bc
       0.0045503248 0.0070593394 -0.054910667 -0.011432366
000330 72 ba c5 3e 7d 13 b3 be da 68 af be 1f ef 98 3c
       0.3861881 -0.34975806 -0.34259683 0.01866871
000340 73 a2 46 be 13 f2 8f be d9 76 6f bd 48 60 b0 3c
       -0.19397907 -0.28114375 -0.05846295 0.021530285
000350 9a 6e 5e b9 37 66 52 00 70 ab 72 bc 75 3c 5f b6
       -0.00021212772 7.567178e-39 -0.014811382 -3.326478e-06
000360 c4 13 c2 3e f3 bd 36 be 50 ed 91 be fd ea 3c be
       0.37905705 -0.17845897 -0.28501368 -0.18449016
000370 cd 12 f0 be 06 c8 d6 3c f9 f0 46 00 72 51 ca 00
       -0.46889344 0.026218425 6.51493e-39 1.8579987e-38
000380 fb a9 4b 80 e8 45 34 00 a6 58 30 80 19 f9 27 00
       -6.94864e-39 4.800523e-39 -4.439905e-39 3.670944e-39
000390 06 53 c3 bc 28 10 8a bc cd 1a dd 3c 25 2f ad 3c
       -0.0238433 -0.016853407 0.026990319 0.021140644
0003a0 16 fd 0d bc a0 10 7f bc 54 13 e9 bd 35 8b 16 3e
       -0.008666297 -0.015567929 -0.1138064 0.14701541
0003b0 a7 c0 0d be f3 5b 8f be 87 1f b3 3e e5 39 c6 be
       -0.13843022 -0.2799984 0.3498499 -0.38716045
0003c0 01 df 47 3f d9 16 1d bf 86 65 c9 3e d0 8a 1b bf
       0.7807465 -0.6136299 0.3933527 -0.60758686
0003d0 82 82 c9 bd 99 37 8d bf 49 1e ed 3e 11 6d a4 be
       -0.098393455 -1.1032592 0.46312168 -0.3211446
0003e0 52 06 9e 3e 4b 7d b1 be 65 de c8 3d 50 9b 0a bf
       0.30864197 -0.34665903 0.098080434 -0.5414324
0003f0 8c f8 19 bf 18 3b 0f 3e 36 9b 98 01 64 5b e9 bc
       -0.6014488 0.13987386 5.60587e-38 -0.028485961

convs.0.lin.bias f4 [128]
000000 9b 62 cf bd 02 2a 88 00 56 40 24 be 90 be 9e 3e
       -0.101262294 1.2504697e-38 -0.16040167 0.31004763
000010 aa ec b0 3e 6f 73 5e be 5c ab b6 be 53 b2 07 3e
       0.3455556 -0.21723722 -0.35677612 0.13251619
000020 75 44 b0 bd b3 72 01 be 96 70 a3 3e c5 34 c2 bd
       -0.08606807 -0.1264141 0.31921834 -0.09482721
000030 3c 5f c0 bc 10 09 b2 ba 60 3b d5 bd 38 e6 91 80
       -0.023482911 -0.0013583023 -0.104117155 -1.3398734e-38
000040 f6 99 9d be 4d ca 03 3e 68 a7 36 81 da df 4c be
       -0.30781525 0.1287014 -3.354823e-38 -0.20007268
000050 82 5d 53 3e df 40 be bb ce 3e cc be da 67 5a be
       0.20641139 -0.005806073 -0.39891666 -0.21328679
000060 7f ef f2 bd 8d 62 1e bd 75 40 03 be d2 f7 ad 3c
       -0.118620865 -0.038668204 -0.12817557 0.021236334
000070 49 e7 93 3d 3d d5 4e bd de 41 b3 be 11 56 ed bc
       0.072218485 -0.05049633 -0.3501119 -0.028971704
000080 d4 41 04 3f 3b 72 0e be 46 90 97 be 99 7c a2 bd
       0.51662946 -0.13910763 -0.2960226 -0.07933921
000090 d7 2f a7 bd 7d d4 06 80 4e 13 0a be 3b f9 be be
       -0.081634216 -6.2724e-40 -0.13483927 -0.37299523
0000a0 86 d2 50 3e 7a 60 4d be 56 93 46 bf 4f 6f 06 3f
       0.20392808 -0.20056334 -0.77568567 0.52513593
0000b0 c5 fa 21 be 5d 52 b3 be 80 16 03 01 81 58 7d bd
       -0.15818317 -0.35023776 2.4077043e-38 -0.061851982
0000c0 76 3a bd bd 14 56 11 be 8b 97 93 3d bc 7e b8 bd
       -0.09239666 -0.14192992 0.07206639 -0.09008548
0000d0 63 cc 83 be de 2d 9f 01 13 f0 71 3e 43 81 c1 bd
       -0.25741872 5.847319e-38 0.23626737 -0.09448483
0000e0 c4 2a 8c 3d 48 f1 47 be e9 8a b6 be f8 74 df 3e
       0.068440944 -0.19525635 -0.35652855 0.43643928
0000f0 8d 86 90 3d 18 27 03 be 6c fb e9 bd c5 c9 9f 3e
       0.070569135 -0.12807882 -0.11424908 0.31208625
000100 98 12 e1 3e d2 32 e5 bc 1c e9 49 bd b1 60 57 be
       0.43959498 -0.027978335 -0.049294576 -0.21032979
000110 05 38 fe bc 8a 36 d8 3d 00 62 ac bd 2d 54 1f 3d
       -0.031032572 0.105572775 -0.084171295 0.038898636
000120 37 9b ce bd 34 25 c4 bd c9 51 5f be be 1f 35 3d
       -0.10088199 -0.095774084 -0.21808542 0.044219725
000130 12 54 2d bd 59 0b 8c be 55 d2 63 bb b8 1d d4 80
       -0.042316504 -0.27352408 -0.0034762819 -1.9479786e-38
000140 58 a5 78 be ac 50 0e be 24 b8 96 bd 0e 17 a8 00
       -0.24281824 -0.13897961 -0.07359341 1.5436634e-38
000150 9a b5 7e 3e 04 c2 9b 81 4c 9c b7 bd 50 6f 32 3e
       0.24873963 -5.7216406e-38 -0.08965358 0.17425275
000160 2a ec 1e 01 55 31 8a bd d9 90 48 bd 2e 6b 0c 01
       2.9189456e-38 -0.067476906 -0.048966262 2.5790837e-38
000170 1a 0a 28 81 b2 b2 48 be b7 c6 03 3e 52 b8 5c 3e
       -3.0863974e-38 -0.19599417 0.12868772 0.21554688
000180 b6 8b 8e bd 36 e5 81 3e b1 a9 27 3e 7e 11 39 be
       -0.069602415 0.25370187 0.16373326 -0.18073079
000190 17 3d 59 80 18 48 6c 3e 11 eb b8 80 a8 12 b8 3d
       -8.195274e-39 0.23074377 -1.6982057e-38 0.089879334
0001a0 da 62 90 be 04 82 9a 3c c5 f4 40 80 04 38 47 bd
       -0.28200418 0.018860824 -5.965279e-39 -0.048637405
0001b0 05 5a 1b bc 2d 4e dc be 19 10 16 3e 6a 4d 8e be
       -0.009481912 -0.43028393 0.14654578 -0.27793437
0001c0 9d 8f ec be 86 79 70 bd f8 8c e6 3e 35 73 47 bd
       -0.46203318 -0.058709644 0.45029426 -0.048693854
0001d0 c5 f0 0f 3d 6a f4 a3 bd 60 c3 88 00 bd b9 e5 bd
       0.035141725 -0.08005603 1.2559715e-38 -0.112170674
0001e0 18 fc 21 be 89 3a c7 bd 3b 28 8c 01 a1 df be 3e
       -0.15818822 -0.097279616 5.1485606e-38 0.3727999
0001f0 c8 1e 08 be fe 85 c2 3e 40 50 32 bc bf fd 1c be
       -0.13292992 0.37992853 -0.010883391 -0.15331171
